Machine Learning/diet-plan-model/diet_plan_model.tflite (tflite, 59320 bytes, 8 tensors)

model_1/model/normalization/truediv;model_1/model/normalization/Sqrt f4 [1, 3]
000000 6d 1e 61 3d 7f 54 13 3e e1 ac 85 40
       0.054960657 0.14387701 4.1773534

model_1/sequential/dense_2/BiasAdd/ReadVariableOp f4 [128]
000000 a6 a8 d9 3d 22 c0 9a 3d 3e c4 c9 3d 75 19 26 bc
       0.1062787 0.07556178 0.09851883 -0.010137905
000010 db 90 39 bc e8 08 b9 3d 39 d2 7a 3d 36 b8 3b bc
       -0.01132604 0.09034902 0.06123564 -0.0114574935
000020 57 d4 36 bc 83 65 de 3d 1d 59 8c 3d 05 0c 09 3e
       -0.011159024 0.108592056 0.068529345 0.13383491
000030 29 a8 45 bc 27 b6 9a 3d 65 19 c5 3d c1 84 b1 3d
       -0.012064018 0.07554274 0.09623984 0.08667899
000040 af c0 5a bc 0f 51 18 bc 21 98 ed 3d b2 a2 87 bc
       -0.013351603 -0.00929667 0.11601282 -0.016557071
000050 18 67 02 3e a8 84 1b 3e ca 8a f7 bd 11 2d 18 bc
       0.1273464 0.15187323 -0.12087019 -0.009288088
000060 26 ea 14 3e 2a d5 fd 3d f3 de a3 3d e6 2e d2 3d
       0.14542446 0.123941734 0.080015086 0.102628514
000070 14 ca a6 bb c6 65 a6 3d 43 8a e8 3d 8b 9c 76 bc
       -0.0050900076 0.081248805 0.11354496 -0.015051971
000080 5a b3 08 3e 00 00 00 00 4f e8 17 3e fc 12 dd bd
       0.13349667 0.0 0.14834712 -0.107946366
000090 17 eb 37 bc df 3f d2 bd 81 61 75 3d 0e 94 9c 3d
       -0.011225483 -0.10266089 0.05990744 0.07645427
0000a0 40 23 6f bc 92 e4 e3 bb e1 26 4d bb 50 51 02 be
       -0.014595807 -0.006954738 -0.0031303691 -0.12726331
0000b0 e7 2d 01 be e5 e9 e2 bd 3a b6 9c 3d 1c 1e 82 bc
       -0.12615167 -0.11079768 0.076519445 -0.015883498
0000c0 b9 0e 8a bb d7 3a 16 bc d7 bf 01 3e 56 e6 f7 bb
       -0.004213181 -0.009169302 0.12670837 -0.0075653
0000d0 6a 78 de 3d 34 e1 81 bc 79 85 c4 3d 6b 34 0b bc
       0.10862811 -0.015854456 0.095957704 -0.008496384
0000e0 df 4e 0c bc 82 9c 1f bc 47 b8 c7 3d 2e d7 83 3d
       -0.008563726 -0.009741904 0.09751945 0.06437527
0000f0 f3 77 1e bc 30 b6 6c bc 2b 2d 09 bc 94 49 06 be
       -0.009672153 -0.014447734 -0.008372585 -0.13114005
000100 e0 ad 2d 3b 00 00 00 00 04 2c 97 3d 2c 8c da bb
       0.0026501343 0.0 0.07381442 -0.006669542
000110 d3 96 a5 3d fe f6 d7 3d 4c c2 08 bc c6 50 b7 bb
       0.08085408 0.10545157 -0.008347105 -0.0055943457
000120 86 2e a7 bb a5 91 c6 3d 06 4c d0 bd c7 de 93 3d
       -0.0051019816 0.09695748 -0.1017075 0.07220226
000130 f9 48 1c 3e 4c db 91 3d af c5 54 bc 36 98 f0 3d
       0.15262212 0.07121906 -0.012986585 0.11747782
000140 46 49 aa 3d ff 71 03 3e 5f 69 eb 3d b2 b4 d4 bb
       0.08314757 0.12836455 0.11494707 -0.006491267
000150 a7 a7 c2 3d 39 5f 93 3d 00 00 00 00 94 f9 03 3e
       0.095046334 0.07195897 0.0 0.12888175
000160 0d 14 c8 bb 7d cc 09 3e 0c b0 0c 3e 33 3b a3 bb
       -0.006105906 0.13456912 0.13739032 -0.0049814223
000170 0c 22 3e bc bb 3b cf 3d 0c b8 bb 3d 45 cb 29 bb
       -0.011604797 0.101188146 0.091659635 -0.0025908512
000180 8e 92 da 3d ef 68 ca 3d 06 e4 cc bb 54 c2 99 bb
       0.10672484 0.09883296 -0.0062527684 -0.004692355
000190 73 31 9d 3d 59 5b a7 3d 8d c4 da bb 87 16 53 bc
       0.07675447 0.0817172 -0.0066762627 -0.012883789
0001a0 db b9 c7 3d 18 a1 df 3d 55 23 ad bc 2f 25 c2 3d
       0.09752246 0.10919398 -0.021135012 0.094797485
0001b0 95 70 a2 3d 9d 40 40 bc eb e1 90 3d 5a bb ae bb
       0.079316296 -0.011734155 0.070743404 -0.0053323926
0001c0 17 59 b2 3d d8 e2 c2 3d f8 3a 17 bc 18 aa df bb
       0.08708399 0.09515923 -0.009230368 -0.0068256967
0001d0 07 9d 01 3e 55 08 f0 3d d3 4b 76 bb 90 6f ca 3d
       0.12657557 0.11720339 -0.0037581816 0.0988456
0001e0 da f5 89 3d a7 c0 e7 3d b1 89 12 3e ca fe bf 3d
       0.067363456 0.113160424 0.14310338 0.09374769
0001f0 d3 59 36 bc e9 c1 48 bc ad 54 9f 3d b6 1d de bd
       -0.011129814 -0.012253263 0.077798225 -0.10845511

Const_1 f4 [1, 3]
000000 95 37 d6 41 42 49 c6 41 4e 67 be 3f
       26.77714 24.78577 1.4875276

model_1/sequential/dense_3/MatMul f4 [1, 128]
000000 6e 3b bb 3e 37 4b c5 3e df 60 99 3e 88 4b 26 be
       0.3656878 0.38533947 0.2995672 -0.1623975
000010 d6 90 04 be 1f 07 ab 3e b8 f9 c1 3e f9 55 a3 bd
       -0.12945876 0.3340387 0.37885833 -0.07975382
000020 35 ec 09 bd 4c d7 96 3e 76 48 ae 3e 90 02 6f 3e
       -0.03367253 0.29461133 0.34039658 0.23340821
000030 51 1d 8d bd 3b 32 a2 3e cc 81 ae 3e 7b c0 9f 3e
       -0.06890357 0.31678948 0.34083402 0.31201538
000040 5e 8e fb bd c2 60 11 be c2 13 82 3e cb 75 d8 bd
       -0.12283014 -0.14197066 0.254057 -0.10569342
000050 37 40 72 3e 68 0e 75 3e 03 80 1e bf 46 ea 02 bc
       0.23657309 0.23931277 -0.6191408 -0.007990425
000060 1b d1 82 3e 48 a7 81 3e 8b cb c5 3e 5f fd 8a 3e
       0.2555016 0.25322938 0.38631853 0.27146432
000070 54 a7 05 be b8 99 9b 3e 59 1b 8c 3e 39 30 a9 bd
       -0.13052112 0.30390716 0.27364615 -0.08261151
000080 df 0f 63 3e e0 c7 4c 3e 2b be 6c 3e 76 a6 21 bf
       0.22174023 0.19998121 0.23119418 -0.63144624
000090 36 de ec bd 0f 1d 22 bf 7d 78 bf 3e ec 6a a6 3e
       -0.11565821 -0.6332559 0.37396613 0.3250345
0000a0 48 e6 ce bc a0 9c b7 bd 6c 72 6a bd f8 e1 23 bf
       -0.025256291 -0.08965421 -0.057238027 -0.64016676
0000b0 07 4f 9e be 24 21 44 bf 52 9a bc 3e b9 4d 80 bd
       -0.30919668 -0.7661307 0.36836487 -0.062648244
0000c0 53 87 58 be 0c 2f f6 bd 8a 04 96 3e 12 01 47 be
       -0.21145372 -0.12020692 0.29300338 -0.19434002
0000d0 45 89 89 3e 04 32 86 bd 13 43 93 3e 02 ae 30 be
       0.2686254 -0.065525085 0.2876211 -0.17253879
0000e0 f9 ba 06 be f5 49 ce bd cd d0 99 3e ba 41 b8 3e
       -0.13157262 -0.100727 0.30042115 0.35987645
0000f0 a3 4c 27 be a3 a8 08 bd ad b9 00 be cf 03 11 bf
       -0.16337828 -0.03336395 -0.1257083 -0.56646436
000100 6a d5 b2 3d 50 cd 57 bd f9 3b b5 3e 48 e0 be bd
       0.08732112 -0.052686036 0.35397318 -0.09320122
000110 4d 76 a5 3e ba ec 93 3e 81 8c 8a bd ea b1 54 be
       0.3231682 0.28891546 -0.0676508 -0.20770994
000120 0b 65 fc bc ce 40 b1 3e 7f a9 06 bf ad 29 a8 3e
       -0.0308099 0.34619755 -0.5260238 0.32844296
000130 28 64 68 3e 2e 35 b5 3e 0e 81 31 be a3 7e 81 3e
       0.22694457 0.35392135 -0.17334387 0.2529193
000140 2a 7b a9 3e 66 2d 6e 3e 42 e9 82 3e 97 7b 17 be
       0.3310178 0.23259506 0.25568587 -0.1479324
000150 4e 3e be 3e 5e 93 b6 3e 02 de 54 be 4e 8e 6f 3e
       0.3715691 0.35659307 -0.20787814 0.23394129
000160 80 80 9f bc a5 7a 77 3e 5d 6c 77 3e 37 7a cd bd
       -0.019470453 0.24167879 0.24162431 -0.10033076
000170 7a a6 d6 bd ec 60 8e 3e 64 2c 95 3e 51 74 da bc
       -0.10480972 0.2780832 0.2913543 -0.026666792
000180 b1 b6 8c 3e 63 b4 81 3e d6 65 46 be 8e 10 0d be
       0.27483132 0.25332937 -0.19374785 -0.13775846
000190 54 f6 a5 3e a0 23 be 3e 52 d5 28 be 95 1d 95 bd
       0.32414496 0.37136555 -0.16487625 -0.07281033
0001a0 c6 e1 82 3e 51 39 8c 3e 7b 47 0c bd 74 9b 9c 3e
       0.25562876 0.2738748 -0.034247857 0.3058735
0001b0 f4 78 b5 3e 33 63 af bd 70 13 af 3e 02 6e 9f bd
       0.35443842 -0.085638426 0.34194517 -0.07784654
0001c0 22 64 a7 3e 19 31 b8 3e ad fc 92 bd c6 f3 34 be
       0.32693583 0.3597496 -0.071771 -0.17671117
0001d0 25 9e 83 3e cf d8 80 3e 91 e9 1a bd 38 96 bc 3e
       0.25706592 0.25165412 -0.037820403 0.36833358
0001e0 3a 78 b2 3e 35 6d 8a 3e 51 d3 65 3e aa c5 88 3e
       0.3485735 0.27036443 0.22443892 0.26713306
0001f0 dd 11 bc bd a3 6d e3 bd 06 3d ac 3e 9c 96 35 bf
       -0.09183095 -0.11104896 0.33640307 -0.70932937

model_1/sequential/dense_1/MatMul;model_1/sequential/dense_1/Relu;model_1/sequential/dense_1/BiasAdd f4 [128]
000000 8c c2 5d 40 7c a6 4c 3e 4b eb 60 40 ed c9 24 bc
       3.4649992 0.19985384 3.5143611 -0.0100579085
000010 77 04 88 40 93 6a 5b 40 50 6e 7b 40 23 8b 58 40
       4.250545 3.4283798 3.928608 3.3834922
000020 42 20 54 40 6a 92 65 40 e7 a7 84 40 08 b4 64 40
       3.3144689 3.5870614 4.145496 3.5734882
000030 4b fa 86 40 ac 86 22 40 43 c8 4f 40 84 a0 2c 40
       4.2180533 2.5394697 3.246598 2.697297
000040 7a 42 80 40 7d 31 62 40 c8 32 73 40 2a ba 67 40
       4.008115 3.5342705 3.7999744 3.6207376
000050 5e f7 7c 40 11 3a 54 40 7e fc 82 40 2f 17 43 40
       3.952598 3.316044 4.093322 3.04829
000060 97 77 6a 40 3a 0c 88 40 15 0e 19 40 88 06 5b 40
       3.6635492 4.2514925 2.3914845 3.4222736
000070 63 5f 5e 40 e1 3d 5a 40 b0 8a 57 40 3e d9 55 40
       3.474572 3.4100268 3.3678398 3.3413844
000080 58 e2 62 40 ca 43 7d 40 ec 4e 85 40 40 5a 61 40
       3.545065 3.9572625 4.165884 3.5211334
000090 5e 37 79 40 a4 2a 40 40 8a 71 31 c0 25 35 6a 40
       3.8940043 3.0026026 -2.7725549 3.6594937
0000a0 e8 3a 81 40 84 6b 83 40 47 7c 59 40 38 e4 72 40
       4.0384407 4.1068745 3.3982103 3.7951794
0000b0 60 3c 66 40 27 43 1f 40 d7 97 47 40 1f 18 64 40
       3.597435 2.4884737 3.1186426 3.5639722
0000c0 25 46 3c 40 7f 6e 32 40 7f a2 51 40 d5 a2 40 40
       2.9417813 2.7879941 3.275543 3.0099385
0000d0 6a dd 5c 40 90 ab 31 40 97 c6 57 40 40 6f 86 40
       3.451014 2.7760963 3.371496 4.2010803
0000e0 9f 14 56 40 33 1d 7e 40 a3 cd 54 40 af 63 8d c0
       3.3450086 3.9705322 3.325051 -4.4184184
0000f0 10 f5 48 40 2f 98 82 40 91 44 9e c0 ed c7 71 40
       3.1399574 4.081077 -4.94587 3.7778275
000100 2c 55 84 40 49 c5 81 40 d8 e2 37 40 65 db 4d 40
       4.135397 4.0553327 2.8732204 3.2165158
000110 d5 35 54 40 01 fc 6e 40 45 94 73 40 9c a1 3c 40
       3.3157856 3.734131 3.8059247 2.9473639
000120 f7 96 7b 40 63 46 75 40 4c 8e 73 40 b9 6a 66 40
       3.9310892 3.832421 3.80556 3.6002638
000130 9e e1 80 40 b4 29 9b 3f 8e 97 60 40 91 19 52 40
       4.027541 1.2122102 3.5092502 3.2828104
000140 e7 98 cd 3f fd 64 20 40 3a 2b 64 40 08 b3 65 40
       1.6062287 2.5061638 3.5651383 3.5890522
000150 28 27 58 40 6d 3b 53 40 6b 7e 50 40 91 81 6b 40
       3.37739 3.300502 3.257716 3.679783
000160 b7 c4 5e 40 c2 1b 43 40 31 89 45 40 50 41 49 40
       3.4807565 3.0485692 3.0864985 3.1446114
000170 85 28 3e 40 d0 8f 51 40 85 a6 78 40 84 e5 73 40
       2.971223 3.2744026 3.8851635 3.8108835
000180 2b 6f 81 40 37 72 6b 40 f9 53 99 c0 16 34 b3 c0
       4.0448203 3.6788461 -4.7915006 -5.600108
000190 4f 82 45 40 e4 61 76 40 52 ed 45 40 6d 2e 6d 40
       3.0860784 3.8497248 3.09261 3.7059586
0001a0 60 f7 46 40 67 c2 48 40 77 39 03 40 e1 1c 4e 40
       3.1088486 3.1368654 2.0503824 3.2205126
0001b0 d2 cf 6a 3f 21 c5 83 40 d2 cf 5d 40 03 79 99 c0
       0.9172336 4.1178136 3.4658093 -4.796022
0001c0 00 9c bd c0 ea 7c 87 40 fb 2b 6e 40 a7 51 6f 40
       -5.925293 4.2339983 3.7214344 3.7393587
0001d0 95 24 58 40 70 94 1b 40 bc 0a 5c 40 7b 05 18 40
       3.3772328 2.430935 3.4381552 2.3753345
0001e0 55 01 7d 40 ce 15 57 40 da b8 4f 40 95 03 9b c0
       3.9532063 3.3607059 3.2456574 -4.8441873
0001f0 08 25 5e 40 60 fe 68 40 a0 5e 5b 40 ee db 57 40
       3.4710102 3.6405258 3.4276505 3.3727984

model_1/sequential/dense_2/MatMul i1 [128, 128] scale=0.00861129 zero_point=0
000000 12 d8 03 03 03 03 18 06 1d 17 13 20 0c 04 04 05
       0.15500322 -0.3444516 0.02583387 0.02583387 0.02583387 0.02583387 0.20667095 0.05166774 0.2497274 0.19805966 0.16361451 0.27556127 0.10333548 0.03444516 0.03444516 0.04305645
000010 15 1a 1c fd 00 15 06 16 03 00 e0 03 04 1c 1a 05
       0.18083708 0.22389354 0.2411161 -0.02583387 0.0 0.18083708 0.05166774 0.18944837 0.02583387 0.0 -0.27556127 0.02583387 0.03444516 0.2411161 0.22389354 0.04305645
000020 16 04 ff 0a 0e 12 da 11 1a 17 0f 17 1a ed 00 1d
       0.18944837 0.03444516 -0.00861129 0.0861129 0.12055805 0.15500322 -0.32722902 0.14639193 0.22389354 0.19805966 0.12916934 0.19805966 0.22389354 -0.16361451 0.0 0.2497274
000030 1c 1a 11 04 0e 1c 1b 03 0c 02 09 b7 0e 13 c7 01
       0.2411161 0.22389354 0.14639193 0.03444516 0.12055805 0.2411161 0.23250483 0.02583387 0.10333548 0.01722258 0.07750161 -0.62862414 0.12055805 0.16361451 -0.4908435 0.00861129
000040 0c 08 06 19 0e 0e 0b 09 00 0d 13 03 01 0f ff 1e
       0.10333548 0.06889032 0.05166774 0.21528225 0.12055805 0.12055805 0.094724186 0.07750161 0.0 0.11194677 0.16361451 0.02583387 0.00861129 0.12916934 -0.00861129 0.2583387
000050 e2 d4 0e ff 1a 1a 22 18 21 01 05 1a 01 01 07 fd
       -0.2583387 -0.37889674 0.12055805 -0.00861129 0.22389354 0.22389354 0.29278386 0.20667095 0.28417256 0.00861129 0.04305645 0.22389354 0.00861129 0.00861129 0.060279027 -0.02583387
000060 11 0b b6 b0 05 0c 20 0a 1f ff e1 0c e1 1c 0b b2
       0.14639193 0.094724186 -0.63723546 -0.6889032 0.04305645 0.10333548 0.27556127 0.0861129 0.26694998 -0.00861129 -0.26694998 0.10333548 -0.26694998 0.2411161 0.094724186 -0.6716806
000070 83 07 05 08 06 f3 19 e0 0e 1d 0d c4 18 02 0b 0b
       -1.0764112 0.060279027 0.04305645 0.06889032 0.05166774 -0.11194677 0.21528225 -0.27556127 0.12055805 0.2497274 0.11194677 -0.5166774 0.20667095 0.01722258 0.094724186 0.094724186
000080 1b e9 02 fb 13 10 0f 19 0c 01 04 11 18 19 16 15
       0.23250483 -0.19805966 0.01722258 -0.04305645 0.16361451 0.13778064 0.12916934 0.21528225 0.10333548 0.00861129 0.03444516 0.14639193 0.20667095 0.21528225 0.18944837 0.18083708
000090 09 fb 09 15 0e 08 03 14 14 ff ec 04 16 04 10 16
       0.07750161 -0.04305645 0.07750161 0.18083708 0.12055805 0.06889032 0.02583387 0.1722258 0.1722258 -0.00861129 -0.1722258 0.03444516 0.18944837 0.03444516 0.13778064 0.18944837
0000a0 0c 1a 00 0a 1c 1e cc 08 1c fd fd 0f 11 e6 0a 07
       0.10333548 0.22389354 0.0 0.0861129 0.2411161 0.2583387 -0.44778708 0.06889032 0.2411161 -0.02583387 -0.02583387 0.12916934 0.14639193 -0.22389354 0.0861129 0.060279027
0000b0 1a 03 01 08 08 08 fc 02 00 01 08 ce 15 0f cf 0c
       0.22389354 0.02583387 0.00861129 0.06889032 0.06889032 0.06889032 -0.03444516 0.01722258 0.0 0.00861129 0.06889032 -0.4305645 0.18083708 0.12916934 -0.4219532 0.10333548
0000c0 1d 1b 05 08 fe 18 23 03 05 18 0b 09 0c 27 0b 15
       0.2497274 0.23250483 0.04305645 0.06889032 -0.01722258 0.20667095 0.30139515 0.02583387 0.04305645 0.20667095 0.094724186 0.07750161 0.10333548 0.3358403 0.094724186 0.18083708
0000d0 e6 dc 01 00 00 19 14 13 08 0b 22 22 19 10 1c 1a
       -0.22389354 -0.31000644 0.00861129 0.0 0.0 0.21528225 0.1722258 0.16361451 0.06889032 0.094724186 0.29278386 0.29278386 0.21528225 0.13778064 0.2411161 0.22389354
0000e0 0b 1d c7 bc 04 0e 17 05 0e 09 dd 18 dc 01 0f c1
       0.094724186 0.2497274 -0.4908435 -0.5855677 0.03444516 0.12055805 0.19805966 0.04305645 0.12055805 0.07750161 -0.30139515 0.20667095 -0.31000644 0.00861129 0.12916934 -0.5425113
0000f0 98 19 1d 00 0c ea 10 d5 06 0d 0e ca 04 11 13 09
       -0.89557415 0.21528225 0.2497274 0.0 0.10333548 -0.18944837 0.13778064 -0.37028545 0.05166774 0.11194677 0.12055805 -0.46500966 0.03444516 0.14639193 0.16361451 0.07750161

model_1/sequential/dense_1/MatMul i1 [128, 256] scale=0.012112501 zero_point=0
000000 08 13 08 06 fe f1 fa 0c 03 ed ff ff fc fc 06 08
       0.09690001 0.23013753 0.09690001 0.072675005 -0.024225002 -0.18168752 -0.072675005 0.14535001 0.036337502 -0.23013753 -0.012112501 -0.012112501 -0.048450004 -0.048450004 0.072675005 0.09690001
000010 f7 02 f8 f8 ff 07 f2 07 07 0a 0d 06 06 f8 12 fa
       -0.10901251 0.024225002 -0.09690001 -0.09690001 -0.012112501 0.08478751 -0.16957502 0.08478751 0.08478751 0.12112501 0.15746251 0.072675005 0.072675005 -0.09690001 0.21802501 -0.072675005
000020 09 fb f7 f2 12 08 ff 02 11 0c f7 04 f4 ef 09 f0
       0.10901251 -0.060562506 -0.10901251 -0.16957502 0.21802501 0.09690001 -0.012112501 0.024225002 0.20591252 0.14535001 -0.10901251 0.048450004 -0.14535001 -0.20591252 0.10901251 -0.19380002
000030 0a 11 ee fc fe f7 01 f5 12 f9 10 04 fb fc fb f3
       0.12112501 0.20591252 -0.21802501 -0.048450004 -0.024225002 -0.10901251 0.012112501 -0.13323751 0.21802501 -0.08478751 0.19380002 0.048450004 -0.060562506 -0.048450004 -0.060562506 -0.15746251
000040 13 f8 05 fd f5 12 07 fd 02 fa fe 05 fa 0a 03 05
       0.23013753 -0.09690001 0.060562506 -0.036337502 -0.13323751 0.21802501 0.08478751 -0.036337502 0.024225002 -0.072675005 -0.024225002 0.060562506 -0.072675005 0.12112501 0.036337502 0.060562506
000050 f3 f2 f8 f5 f4 0d 02 ff f5 fb fb f6 0d f7 f9 0e
       -0.15746251 -0.16957502 -0.09690001 -0.13323751 -0.14535001 0.15746251 0.024225002 -0.012112501 -0.13323751 -0.060562506 -0.060562506 -0.12112501 0.15746251 -0.10901251 -0.08478751 0.16957502
000060 07 f0 ee 0e 0f fe fd 0d 12 06 0f 0d 03 08 f4 f2
       0.08478751 -0.19380002 -0.21802501 0.16957502 0.18168752 -0.024225002 -0.036337502 0.15746251 0.21802501 0.072675005 0.18168752 0.15746251 0.036337502 0.09690001 -0.14535001 -0.16957502
000070 06 02 f7 fc ee 01 f2 f2 05 f3 0d 03 fc ff ff f5
       0.072675005 0.024225002 -0.10901251 -0.048450004 -0.21802501 0.012112501 -0.16957502 -0.16957502 0.060562506 -0.15746251 0.15746251 0.036337502 -0.048450004 -0.012112501 -0.012112501 -0.13323751
000080 fc 01 ee ed 01 0b 03 02 08 05 f5 f3 fa 04 07 01
       -0.048450004 0.012112501 -0.21802501 -0.23013753 0.012112501 0.13323751 0.036337502 0.024225002 0.09690001 0.060562506 -0.13323751 -0.15746251 -0.072675005 0.048450004 0.08478751 0.012112501
000090 06 0e f5 00 00 02 fa f6 12 fe 09 03 f3 08 0a ff
       0.072675005 0.16957502 -0.13323751 0.0 0.0 0.024225002 -0.072675005 -0.12112501 0.21802501 -0.024225002 0.10901251 0.036337502 -0.15746251 0.09690001 0.12112501 -0.012112501
0000a0 03 00 00 fd fb 0e f8 0b f8 f2 fa 02 09 0f f8 fe
       0.036337502 0.0 0.0 -0.036337502 -0.060562506 0.16957502 -0.09690001 0.13323751 -0.09690001 -0.16957502 -0.072675005 0.024225002 0.10901251 0.18168752 -0.09690001 -0.024225002
0000b0 f4 00 ef 06 08 07 0c fe 05 fe 13 ff f4 0f 04 02
       -0.14535001 0.0 -0.20591252 0.072675005 0.09690001 0.08478751 0.14535001 -0.024225002 0.060562506 -0.024225002 0.23013753 -0.012112501 -0.14535001 0.18168752 0.048450004 0.024225002
0000c0 f9 02 f5 f2 f0 05 01 f4 08 f8 02 03 06 01 06 0f
       -0.08478751 0.024225002 -0.13323751 -0.16957502 -0.19380002 0.060562506 0.012112501 -0.14535001 0.09690001 -0.09690001 0.024225002 0.036337502 0.072675005 0.012112501 0.072675005 0.18168752
0000d0 f3 10 fe 04 fd 0b 0a 09 ee 09 f2 f8 fd 09 01 00
       -0.15746251 0.19380002 -0.024225002 0.048450004 -0.036337502 0.13323751 0.12112501 0.10901251 -0.21802501 0.10901251 -0.16957502 -0.09690001 -0.036337502 0.10901251 0.012112501 0.0
0000e0 03 f3 0b 0f 0c f0 f5 ee f6 fc f3 03 01 f5 13 fe
       0.036337502 -0.15746251 0.13323751 0.18168752 0.14535001 -0.19380002 -0.13323751 -0.21802501 -0.12112501 -0.048450004 -0.15746251 0.036337502 0.012112501 -0.13323751 0.23013753 -0.024225002
0000f0 f6 fe 11 06 ed f3 0d 00 fd f0 f2 fc 0c 08 0b ff
       -0.12112501 -0.024225002 0.20591252 0.072675005 -0.23013753 -0.15746251 0.15746251 0.0 -0.036337502 -0.19380002 -0.16957502 -0.048450004 0.14535001 0.09690001 0.13323751 -0.012112501

model_1/sequential/dense/MatMul i1 [256, 6] scale=0.0055179955 zero_point=0
000000 25 26 03 00 2f 0f ff 09 03 00 21 39 b8 fb 07 00
       0.20416583 0.20968382 0.016553987 0.0 0.2593458 0.08276993 -0.0055179955 0.04966196 0.016553987 0.0 0.18209384 0.31452575 -0.39729568 -0.027589977 0.038625967 0.0
000010 19 04 d1 eb 26 00 30 0a 26 06 e4 00 fb ca 07 1e
       0.13794988 0.022071982 -0.2593458 -0.115877904 0.20968382 0.0 0.2648638 0.055179954 0.20968382 0.033107974 -0.15450387 0.0 -0.027589977 -0.29797176 0.038625967 0.16553986
000020 19 00 d3 e9 02 c9 f7 00 e1 ee db e9 1a 00 25 1e
       0.13794988 0.0 -0.24830979 -0.12691389 0.011035991 -0.30348974 -0.04966196 0.0 -0.17105787 -0.09932392 -0.20416583 -0.12691389 0.14346789 0.0 0.20416583 0.16553986
000030 cb 12 20 00 20 00 d8 f2 fe 00 dc cf 29 02 13 00
       -0.29245377 0.09932392 0.17657585 0.0 0.17657585 0.0 -0.22071981 -0.07725193 -0.011035991 0.0 -0.19864784 -0.27038178 0.22623782 0.011035991 0.10484191 0.0
000040 36 16 35 09 f3 00 ef d4 32 14 e2 00 d8 03 59 19
       0.29797176 0.1213959 0.29245377 0.04966196 -0.071733944 0.0 -0.093805924 -0.2427918 0.27589977 0.11035991 -0.16553986 0.0 -0.22071981 0.016553987 0.4911016 0.13794988
000050 18 00 14 0f 21 24 0a 00 1a 27 1f e8 20 00 1a 31
       0.1324319 0.0 0.11035991 0.08276993 0.18209384 0.19864784 0.055179954 0.0 0.14346789 0.21520182 0.17105787 -0.1324319 0.17657585 0.0 0.14346789 0.27038178
000060 2b e9 d9 00 f5 e2 02 25 dd 00 1e 15 10 d8 f5 00
       0.2372738 -0.12691389 -0.21520182 0.0 -0.06069795 -0.16553986 0.011035991 0.20416583 -0.19312984 0.0 0.16553986 0.115877904 0.08828793 -0.22071981 -0.06069795 0.0
000070 ec cd b8 dd 0b 00 ce d6 2c 14 17 00 1a 28 a4 ff
       -0.11035991 -0.28141776 -0.39729568 -0.19312984 0.06069795 0.0 -0.27589977 -0.23175581 0.2427918 0.11035991 0.12691389 0.0 0.14346789 0.22071981 -0.50765556 -0.0055179955
000080 eb 00 13 fa eb 02 09 00 dc c8 4c e3 e8 00 2a 1e
       -0.115877904 0.0 0.10484191 -0.033107974 -0.115877904 0.011035991 0.04966196 0.0 -0.19864784 -0.30900773 0.41936764 -0.16002187 -0.1324319 0.0 0.23175581 0.16553986
000090 81 04 07 00 15 e9 3d 15 f6 00 32 06 0f 29 14 00
       -0.7007854 0.022071982 0.038625967 0.0 0.115877904 -0.12691389 0.3365977 0.115877904 -0.055179954 0.0 0.27589977 0.033107974 0.08276993 0.22623782 0.11035991 0.0
0000a0 2a 1a d8 03 15 00 29 07 38 14 f5 00 1e 26 14 fa
       0.23175581 0.14346789 -0.22071981 0.016553987 0.115877904 0.0 0.22623782 0.038625967 0.30900773 0.11035991 -0.06069795 0.0 0.16553986 0.20968382 0.11035991 -0.033107974
0000b0 df 00 d7 d7 fd 0d 0d 00 24 34 37 f6 df 00 02 cb
       -0.18209384 0.0 -0.22623782 -0.22623782 -0.016553987 0.071733944 0.071733944 0.0 0.19864784 0.28693578 0.30348974 -0.055179954 -0.18209384 0.0 0.011035991 -0.29245377
0000c0 b4 fc 09 00 06 1d c9 e5 fa 00 dd e3 0c fd d5 00
       -0.41936764 -0.022071982 0.04966196 0.0 0.033107974 0.16002187 -0.30348974 -0.14898588 -0.033107974 0.0 -0.19312984 -0.16002187 0.06621595 -0.016553987 -0.2372738 0.0
0000d0 f8 c9 2f 1a 1a 00 d3 f8 f0 08 f2 00 2e 31 ef 07
       -0.044143964 -0.30348974 0.2593458 0.14346789 0.14346789 0.0 -0.24830979 -0.044143964 -0.08828793 0.044143964 -0.07725193 0.0 0.25382778 0.27038178 -0.093805924 0.038625967
0000e0 20 00 1a 02 04 08 f6 00 f3 c9 25 20 0a 00 d2 f4
       0.17657585 0.0 0.14346789 0.011035991 0.022071982 0.044143964 -0.055179954 0.0 -0.071733944 -0.30348974 0.20416583 0.17657585 0.055179954 0.0 -0.25382778 -0.06621595
0000f0 2b e8 e5 00 2e 1f e6 25 e6 00 0b 22 30 10 e0 00
       0.2372738 -0.1324319 -0.14898588 0.0 0.25382778 0.17105787 -0.14346789 0.20416583 -0.14346789 0.0 0.06069795 0.18761185 0.2648638 0.08828793 -0.17657585 0.0
