Machine Learning/diet_plan_model/diet_plan_model_3.tflite (tflite, 59224 bytes, 8 tensors)

model/model/normalization/truediv;model/model/normalization/Sqrt f4 [1, 3]
0.054960657 0.14387701 4.1773534
00000000: 6d1e 613d 7f54 133e e1ac 8540

model/sequential/dense_2/BiasAdd/ReadVariableOp f4 [128]
-0.01398989 0.12000298 0.0 -0.05349338 0.0741438 0.070989594 0.1549405 -0.008023647
0.06191517 0.11620407 0.07936337 0.136131 -0.013923917 -0.012100392 0.109268054 -0.0070823138
0.0 -0.0049998104 -0.0111932615 0.123607606 0.097320676 0.08895291 0.054556437 -0.062690474
0.060964797 0.08393343 -0.009618528 -0.123146184 0.059959922 -0.008901018 -0.008092782 0.11705648
-0.0026378655 -0.011413451 0.07392518 0.08276836 0.109334014 0.13776222 -0.0024139748 0.0881664
0.13219568 0.08677482 0.12882434 0.11739158 -0.00837194 0.08342666 -0.06610934 0.14176168
0.1169255 0.1065125 0.089132816 -0.011684243 0.10133509 0.040361382 -0.012576914 -0.006511637
0.077245034 -0.010930138 0.08231652 -0.0024079357 0.0990307 0.061086442 0.08024744 -0.014245363
0.15098123 0.13078944 0.115729585 0.0 -0.07532572 -0.0018509424 -0.0069429697 0.077485025
0.15162452 -0.011558684 -0.018713126 -0.12003703 0.13542987 -0.12103383 0.08169679 0.071777575
0.14172187 0.0 -0.016626665 -0.0088647185 0.0 -0.008320486 -0.0047620884 -0.009016291
-0.008158047 0.10365866 0.054587003 0.0801865 0.131962 0.08879385 0.067759976 -0.009845753
0.13773556 0.048943266 0.055402327 0.09835763 0.14943749 0.060008287 -0.012417493 0.07347304
0.112598665 0.0 -0.011630529 -0.0064484584 -0.011321791 -0.0056923483 0.0 0.0813591
0.098596044 0.13595225 -0.011939736 -0.015334574 0.087736234 0.13713266 0.050508983 -0.0058894223
0.09167324 -0.0051221545 0.13285121 -0.004406982 0.07363356 -0.008775639 0.15728097 -0.008722018
00000000: da35 65bc 1fc4 f53d 0000 0000 e01b 5bbd
00000010: b4d8 973d fe62 913d b9a8 1e3e 9d75 03bc
00000020: c39a 7d3d 66fc ed3d 4389 a23d ed65 0b3e
00000030: 2421 64bc b940 46bc eec7 df3d c112 e8bb
00000040: 0000 0000 73d5 a3bb f163 37bc fc25 fd3d
00000050: 1050 c73d f12c b63d 9276 5f3d dd63 80bd
00000060: 39b6 793d 4ae5 ab3d 0897 1dbc 1134 fcbd
00000070: 8998 753d 93d5 11bc 9797 04bc 4fbb ef3d
00000080: 0ae0 2cbb 7cff 3abc 1666 973d 7582 a93d
00000090: 83ea df3d 8a11 0d3e c733 1ebb 9690 b43d
000000a0: 4e5e 073e ffb6 b13d 87ea 033e ff6a f03d
000000b0: 762a 09bc 99db aa3d 5564 87bd f929 113e
000000c0: a376 ef3d 3a23 da3d 448b b63d 446f 3fbc
000000d0: c688 cf3d fa51 253d 670f 4ebc 925f d5bb
000000e0: a532 9e3d 5214 33bc 9095 a83d 75ce 1dbb
000000f0: 9cd0 ca3d c735 7a3d c558 a43d 6265 69bc
00000100: d39a 1a3e abed 053e a203 ed3d 0000 0000
00000110: 5f44 9abd 529b f2ba da81 e3bb 78b0 9e3d
00000120: 7543 1b3e a260 3dbc 454c 99bc f9d5 f5bd
00000130: 21ae 0a3e 96e0 f7bd a650 a73d 1f00 933d
00000140: 8a1f 113e 0000 0000 a534 88bc 533d 11bc
00000150: 0000 0000 a652 08bc 4b0b 9cbb 11b9 13bc
00000160: 54a9 05bc fe4a d43d 9f96 5f3d d238 a43d
00000170: 0c21 073e 8dd9 b53d bec5 8a3d 1550 21bc
00000180: 8d0a 0d3e bc78 483d 8ded 623d ba6f c93d
00000190: 2406 193e 40cb 753d be72 4bbc 0879 963d
000001a0: 219a e63d 0000 0000 f98d 3ebc 974d d3bb
000001b0: 097f 39bc e186 babb 0000 0000 9a9f a63d
000001c0: b9ec c93d 1137 0b3e e29e 43bc dd3d 7bbc
000001d0: 0eaf b33d 816c 0c3e 82e2 4e3d 0efc c0bb
000001e0: 2ebf bb3d bfd7 a7bb 260a 083e 7268 90bb
000001f0: 31cd 963d b3c7 0fbc 430e 213e cce6 0ebc

Const_1 f4 [1, 3]
26.77714 24.78577 1.4875276
00000000: 9537 d641 4249 c641 4e67 be3f

model/sequential/dense_3/MatMul f4 [1, 128]
-0.025947241 0.25790793 -0.17399025 -0.64727014 0.29736525 0.31881267 0.23101342 -0.034785934
0.29538617 0.2667084 0.27440175 0.21471249 -0.0131884655 -0.08942563 0.24169615 -0.029140579
0.021098569 -0.055187337 -0.02893692 0.27075636 0.2688616 0.26892224 0.32468602 -0.6655913
0.30827603 0.29103687 -0.07675874 -0.31414717 0.34570524 -0.07391837 -0.20152234 0.27700862
-0.10149426 -0.0033783265 0.2843245 0.3288011 0.22260454 0.20933153 -0.0054411427 0.24226055
0.22325832 0.2594957 0.24133317 0.23930782 -0.20170443 0.3956541 -0.5973813 0.22178027
0.23578243 0.2549419 0.28824115 -0.068144515 0.27560768 0.35392883 -0.013536332 -0.1690354
0.28424928 -0.059007872 0.28722113 -0.15707967 0.25702778 0.3112221 0.2619546 -0.052715532
0.22623405 0.23547521 0.23542263 -0.20122153 -0.62494826 -0.14820504 -0.06201163 0.29818377
0.2261227 -0.14071345 -0.07907959 -0.39285848 0.20637247 -0.7653943 0.2463664 0.30198702
0.21714641 0.01598993 -0.0386483 -0.047444478 0.20959747 -0.019062985 -0.17497145 -0.16405559
-0.06850014 0.24392486 0.36780307 0.27938378 0.22278666 0.28667256 0.34804884 -0.065491326
0.21331725 0.3711815 0.3752127 0.2778195 0.23702887 0.32537222 -0.16289411 0.27539828
0.2358445 -0.15837379 -0.054204233 -0.21608116 -0.106899746 -0.17255053 -0.17935795 0.32484162
0.2999208 0.23456377 -0.007132877 -0.1091795 0.24718015 0.2203503 0.32800272 -0.043961328
0.30310056 -0.17119107 0.24369015 -0.1954833 0.2724884 -0.12809202 0.21675009 -0.035429597
00000000: 4f8f d4bc 820c 843e 802a 32be 7fb3 25bf
00000010: 4240 983e 6a3b a33e c88e 6c3e b27b 0ebd
00000020: db3c 973e 018e 883e 637e 8c3e 97dd 5b3e
00000030: 6f14 58bc c924 b7bd 327f 773e 39b8 eebc
00000040: e8d6 ac3c 1e0c 62bd 1f0d edbc 94a0 8a3e
00000050: 3aa8 893e 2db0 893e 3f3d a63e 3164 2abf
00000060: 5bd6 9d3e c902 953e b033 9dbd e6d7 a0be
00000070: 4700 b13e 8462 97bd df5b 4ebe 13d4 8d3e
00000080: 39dc cfbd ea66 5dbb fb92 913e 9e58 a83e
00000090: 72f2 633e 015b 563e 9d4b b2bb 2613 783e
000000a0: d49d 643e 9fdc 843e 0b20 773e 1c0d 753e
000000b0: 9b8b 4ebe 2d93 ca3e fbed 18bf 5e1a 633e
000000c0: f370 713e bf87 823e 5894 933e 5a8f 8bbd
000000d0: 731c 8d3e 2936 b53e 7ec7 5dbc 9e17 2dbe
000000e0: 1f89 913e 3db2 71bd a60e 933e 7ed9 20be
000000f0: 2599 833e 8158 9f3e ea1e 863e 3eec 57bd
00000100: e6a9 673e 6a20 713e a112 713e 040d 4ebe
00000110: 9cfc 1fbf 10c3 17be e8ff 7dbd 8bab 983e
00000120: b68c 673e 3017 10be 7bf4 a1bd bf24 c9be
00000130: 4e53 533e e1f0 43bf 7947 7c3e 0b9e 9a3e
00000140: a15b 5e3e 50fd 823c ae4d 1ebd 2455 42bd
00000150: b8a0 563e fa29 9cbc b72b 33be 30fe 27be
00000160: cd49 8cbd 70c7 793e af50 bc3e 640b 8f3e
00000170: 3022 643e bfc6 923e 7533 b23e 5120 86bd
00000180: d66f 5a3e 800b be3e e11b c03e 5c3e 8e3e
00000190: b2b7 723e 3097 a63e b7cd 26be 0101 8d3e
000001a0: 3881 713e bd2c 22be 4205 5ebd 6144 5dbe
000001b0: 41ee dabd 16b1 30be 9ca9 37be a451 a63e
000001c0: 388f 993e 7c31 703e e9ba e9bb 8099 dfbd
000001d0: cb1c 7d3e 82a3 613e f9ef a73e cb10 34bd
000001e0: ff2f 9b3e b64c 2fbe e989 793e c62c 48be
000001f0: 9983 8b3e 8e2a 03be bcf3 5d3e a01e 11bd

model/sequential/dense_1/MatMul;model/sequential/dense_1/Relu;model/sequential/dense_1/BiasAdd f4 [128]
3.161091 -3.9814231 3.0803213 3.0300882 3.2839413 -3.0288372 3.4227498 4.0552473
-3.924283 3.9317636 3.4899032 3.8530304 -2.4512277 4.247748 3.466129 -4.6521926
4.240703 3.9602003 3.3994248 3.551064 4.287276 3.2880898 3.9571276 4.121292
3.334422 3.5998676 3.2869542 3.6798527 3.0577207 3.964273 -0.010445113 3.9744139
3.7914443 3.3397515 4.226192 4.0870442 3.9600742 -3.9779792 4.090168 4.13862
-4.0845366 3.7080324 3.7775226 -4.1259313 3.1570587 -3.0948513 4.5121946 3.1891885
-1.9201663 2.9343438 3.1567125 -4.0928845 -1.9470229 4.1283197 3.2948017 4.024774
3.2365787 3.5626445 3.6982162 4.180888 3.6805744 3.2475498 -3.0240133 3.3527176
3.646611 3.320319 -4.445411 -4.1561956 3.6109157 -2.495724 -0.014055178 -4.1251764
3.2181551 4.203223 3.932619 4.3363276 4.1378236 3.2441497 -3.4125838 3.7121181
2.9417167 3.288118 3.2007296 3.031472 3.6152523 3.9121327 -0.013822722 3.301575
3.5867376 3.974524 3.7193894 2.8727844 2.9012597 3.5931604 4.2018366 3.4556558
3.886696 -3.2257476 3.5340862 3.239658 3.1594257 3.3505156 3.3823912 3.7190464
3.830077 1.6601607 3.1672773 3.757794 3.7735348 3.868961 3.9116082 3.349057
3.8446167 3.1799521 4.2187586 3.5232363 4.230905 3.3873136 2.9526126 4.353552
4.021502 2.980249 3.1539733 3.696495 2.9190469 3.231459 4.33756 3.438611
00000000: 514f 4a40 a3cf 7ec0 fc23 4540 f7ec 4140
00000010: 182c 5240 78d8 41c0 550e 5b40 96c4 8140
00000020: 7427 7bc0 04a2 7b40 935a 5f40 0d98 7640
00000030: eae0 1cc0 8ded 8740 0fd5 5d40 c3de 94c0
00000040: d7b3 8740 ec73 7d40 2d90 5940 a244 6340
00000050: 5d31 8940 1070 5240 9441 7d40 a0e1 8340
00000060: 2c67 5540 3b64 6640 755d 5240 b582 6b40
00000070: b2b1 4340 a6b6 7d40 fb21 2bbc cc5c 7e40
00000080: 06a7 7240 7dbe 5540 f73c 8740 11c9 8240
00000090: db71 7d40 3697 7ec0 a8e2 8240 936f 8440
000000a0: 86b4 82c0 6750 6d40 eec2 7140 a107 84c0
000000b0: 400d 4a40 0b12 46c0 e663 9040 aa1b 4c40
000000c0: 02c8 f5bf 4acc 3b40 9407 4a40 e9f8 82c0
000000d0: 0c38 f9bf 321b 8440 08de 5240 f3ca 8040
000000e0: 1b24 4f40 5e02 6440 93af 6c40 d6c9 8540
000000f0: 888e 6b40 dbd7 4f40 6f89 41c0 ed92 5640
00000100: 1362 6940 1b80 5440 cf40 8ec0 8eff 84c0
00000110: 3e19 6740 f1b9 1fc0 b047 66bc 7201 84c0
00000120: 41f6 4d40 ce80 8640 08b0 7b40 32c3 8a40
00000130: 0d69 8440 26a0 4f40 c667 5ac0 5893 6d40
00000140: 1645 3c40 8670 5240 c1d8 4c40 a303 4240
00000150: 4b60 6740 6260 7a40 b378 62bc 014d 5340
00000160: 1c8d 6540 9a5e 7e40 7a0a 6e40 b3db 3740
00000170: 3dae 3940 57f6 6540 7275 8640 7729 5d40
00000180: a1bf 7840 a672 4ec0 782e 6240 8f56 4f40
00000190: 0834 4a40 d96e 5640 1979 5840 db04 6e40
000001a0: fb1f 7540 2580 d43f acb4 4a40 b27f 7040
000001b0: 9881 7140 0f9d 7740 ca57 7a40 f356 5640
000001c0: 330e 7640 5684 4b40 1200 8740 b47c 6140
000001d0: 9363 8740 bfc9 5840 9bf7 3c40 4c50 8b40
000001e0: 25b0 8040 66bc 3e40 b3da 4940 6093 6c40
000001f0: aad1 3a40 39d0 4e40 4bcd 8a40 3412 5c40

model/sequential/dense_2/MatMul i1 [128, 128] scale=0.010248951 zero_point=0
0.061493702 -0.122987404 0.010248951 -0.16398321 0.020497901 0.010248951 -0.051244754 -0.040995803
-0.020497901 -0.09224056 -0.061493702 -0.09224056 -0.10248951 0.040995803 -0.11273846 -0.11273846
-0.122987404 0.030746851 0.10248951 0.13323636 -0.10248951 -0.09224056 -0.010248951 -0.15373427
-0.081991605 -0.030746851 0.081991605 -0.09224056 0.081991605 -0.122987404 -0.09224056 0.122987404
-0.010248951 -0.081991605 0.11273846 0.051244754 -0.051244754 -0.09224056 -0.051244754 0.071742654
-0.071742654 -0.061493702 -0.040995803 -0.11273846 -0.11273846 0.122987404 0.09224056 0.030746851
0.122987404 0.13323636 0.040995803 -0.010248951 -0.010248951 0.122987404 -0.040995803 0.09224056
-0.14348531 -0.09224056 0.030746851 0.071742654 0.071742654 -0.081991605 0.10248951 0.10248951
0.040995803 -0.061493702 0.030746851 -0.020497901 0.061493702 0.051244754 -0.061493702 0.071742654
-0.122987404 -0.16398321 0.081991605 0.10248951 0.0 -0.071742654 -0.040995803 -0.081991605
0.061493702 -0.13323636 0.0 -0.051244754 -0.071742654 0.010248951 0.040995803 -0.081991605
0.051244754 0.071742654 -0.081991605 -0.010248951 0.09224056 0.071742654 0.11273846 0.071742654
0.122987404 0.030746851 0.061493702 -0.010248951 -0.040995803 -0.13323636 -0.010248951 0.09224056
-0.09224056 0.061493702 -0.071742654 0.061493702 0.122987404 0.11273846 -0.061493702 -0.13323636
-0.081991605 0.051244754 -0.14348531 -0.030746851 -0.16398321 -0.051244754 -0.09224056 -0.15373427
-0.09224056 -0.16398321 0.11273846 -0.051244754 0.13323636 -0.10248951 0.030746851 -0.030746851
0.16398321 -0.59443915 0.09224056 0.11273846 0.21522796 -0.62518597 0.020497901 0.13323636
-0.5636923 0.040995803 0.24597481 0.020497901 0.830165 0.10248951 0.11273846 -0.81991607
0.10248951 0.09224056 0.24597481 0.010248951 0.15373427 0.061493702 0.21522796 0.22547692
0.25622377 0.14348531 0.20497902 0.0 0.19473006 0.11273846 -0.081991605 0.010248951
0.071742654 0.071742654 0.071742654 0.09224056 0.13323636 -0.32796642 0.051244754 0.13323636
-0.51244754 0.040995803 0.26647273 -0.94290346 0.28697062 -0.65593284 0.24597481 0.14348531
-0.122987404 0.16398321 0.040995803 -0.43045592 -0.35871327 0.11273846 0.29721957 0.27672166
0.23572586 0.0 0.14348531 0.010248951 0.040995803 0.020497901 -0.45095384 0.122987404
0.14348531 0.15373427 -0.42020696 -0.8916587 0.030746851 -0.38946012 0.040995803 -0.5534433
0.010248951 0.122987404 0.18448111 0.11273846 0.19473006 0.35871327 -0.59443915 0.11273846
0.15373427 0.081991605 0.28697062 0.10248951 0.23572586 0.122987404 -0.061493702 0.061493702
0.16398321 0.13323636 0.23572586 0.20497902 0.18448111 0.11273846 0.020497901 0.23572586
0.051244754 -0.25622377 0.26647273 0.020497901 0.14348531 0.22547692 0.061493702 0.14348531
0.20497902 0.040995803 0.26647273 0.22547692 0.122987404 0.061493702 0.28697062 0.35871327
0.071742654 0.17423216 0.25622377 0.020497901 0.020497901 0.19473006 0.122987404 0.10248951
0.16398321 0.21522796 0.17423216 0.071742654 0.122987404 0.31771746 0.0 0.21522796
00000000: 06f4 01f0 0201 fbfc fef7 faf7 f604 f5f5
00000010: f403 0a0d f6f7 fff1 f8fd 08f7 08f4 f70c
00000020: fff8 0b05 fbf7 fb07 f9fa fcf5 f50c 0903
00000030: 0c0d 04ff ff0c fc09 f2f7 0307 07f8 0a0a
00000040: 04fa 03fe 0605 fa07 f4f0 080a 00f9 fcf8
00000050: 06f3 00fb f901 04f8 0507 f8ff 0907 0b07
00000060: 0c03 06ff fcf3 ff09 f706 f906 0c0b faf3
00000070: f805 f2fd f0fb f7f1 f7f0 0bfb 0df6 03fd
00000080: 10c6 090b 15c3 020d c904 1802 510a 0bb0
00000090: 0a09 1801 0f06 1516 190e 1400 130b f801
000000a0: 0707 0709 0de0 050d ce04 1aa4 1cc0 180e
000000b0: f410 04d6 dd0b 1d1b 1700 0e01 0402 d40c
000000c0: 0e0f d7a9 03da 04ca 010c 120b 1323 c60b
000000d0: 0f08 1c0a 170c fa06 100d 1714 120b 0217
000000e0: 05e7 1a02 0e16 060e 1404 1a16 0c06 1c23
000000f0: 0711 1902 0213 0c0a 1015 1107 0c1f 0015

model/sequential/dense_1/MatMul i1 [128, 256] scale=0.008983346 zero_point=0
-0.2156003 0.14373353 -0.026950037 -0.008983346 -0.12576684 -0.10780015 0.22458364 -0.053900074
0.08085011 0.017966691 -0.026950037 0.026950037 -0.017966691 0.044916727 -0.10780015 0.08983345
0.071866766 0.11678349 0.008983346 -0.017966691 0.16170022 -0.08085011 0.2156003 -0.1796669
0.08983345 -0.053900074 0.22458364 -0.008983346 -0.071866766 0.2156003 0.2156003 -0.08983345
-0.06288342 0.017966691 -0.19763361 0.11678349 0.044916727 -0.044916727 0.16170022 0.098816805
0.035933383 0.14373353 0.11678349 -0.12576684 -0.22458364 0.026950037 0.11678349 -0.18865027
-0.098816805 0.16170022 -0.18865027 -0.026950037 -0.026950037 -0.008983346 -0.08085011 -0.20661695
0.11678349 -0.053900074 -0.017966691 -0.008983346 0.035933383 0.098816805 -0.13475019 0.0
0.18865027 -0.071866766 0.008983346 -0.06288342 -0.06288342 0.1796669 -0.13475019 0.18865027
-0.053900074 -0.071866766 -0.17068356 0.035933383 0.017966691 -0.1796669 0.017966691 -0.044916727
-0.08983345 0.08983345 -0.13475019 0.14373353 -0.017966691 -0.17068356 0.1796669 -0.11678349
-0.08983345 -0.08983345 0.13475019 0.19763361 0.08983345 -0.017966691 -0.035933383 -0.044916727
-0.16170022 -0.044916727 -0.026950037 0.035933383 -0.044916727 0.098816805 -0.10780015 -0.12576684
0.035933383 0.18865027 0.044916727 -0.18865027 -0.035933383 0.06288342 -0.08983345 0.17068356
0.10780015 0.17068356 0.1796669 -0.13475019 -0.18865027 -0.15271688 0.1796669 0.026950037
-0.08983345 0.14373353 0.035933383 -0.10780015 0.20661695 0.17068356 -0.16170022 -0.08085011
0.12576684 -0.026950037 -0.12576684 0.13475019 -0.11678349 -0.13475019 0.14373353 0.14373353
-0.19763361 -0.008983346 0.06288342 -0.12576684 0.026950037 0.08085011 0.10780015 -0.17068356
-0.071866766 0.071866766 0.08085011 0.044916727 0.035933383 -0.008983346 -0.15271688 0.044916727
-0.098816805 0.026950037 0.044916727 -0.16170022 -0.19763361 -0.008983346 -0.08085011 0.08085011
0.071866766 0.026950037 -0.071866766 0.098816805 0.13475019 -0.026950037 0.053900074 0.16170022
-0.13475019 -0.026950037 -0.098816805 -0.071866766 0.08983345 -0.071866766 0.10780015 -0.22458364
-0.12576684 0.15271688 0.19763361 0.14373353 0.017966691 -0.08085011 -0.071866766 -0.1796669
0.098816805 0.17068356 -0.14373353 0.2156003 0.017966691 -0.08085011 -0.14373353 -0.18865027
0.098816805 -0.044916727 0.017966691 -0.10780015 -0.15271688 -0.026950037 0.0 0.017966691
-0.017966691 -0.08085011 -0.10780015 0.22458364 0.026950037 0.14373353 0.18865027 0.10780015
-0.12576684 0.026950037 0.10780015 0.10780015 0.18865027 -0.13475019 -0.008983346 -0.044916727
0.098816805 0.14373353 -0.026950037 -0.14373353 -0.16170022 -0.026950037 -0.1796669 0.15271688
0.035933383 -0.098816805 0.008983346 -0.008983346 0.12576684 0.20661695 -0.06288342 -0.044916727
-0.026950037 -0.071866766 0.08085011 -0.12576684 -0.1796669 -0.053900074 0.16170022 -0.098816805
0.044916727 0.06288342 -0.19763361 0.053900074 0.14373353 0.017966691 -0.11678349 0.0
0.08085011 -0.08085011 0.1796669 -0.044916727 -0.12576684 0.06288342 -0.16170022 0.071866766
00000000: e810 fdff f2f4 19fa 0902 fd03 fe05 f40a
00000010: 080d 01fe 12f7 18ec 0afa 19ff f818 18f6
00000020: f902 ea0d 05fb 120b 0410 0df2 e703 0deb
00000030: f512 ebfd fdff f7e9 0dfa feff 040b f100
00000040: 15f8 01f9 f914 f115 faf8 ed04 02ec 02fb
00000050: f60a f110 feed 14f3 f6f6 0f16 0afe fcfb
00000060: eefb fd04 fb0b f4f2 0415 05eb fc07 f613
00000070: 0c13 14f1 ebef 1403 f610 04f4 1713 eef7
00000080: 0efd f20f f3f1 1010 eaff 07f2 0309 0ced
00000090: f808 0905 04ff ef05 f503 05ee eaff f709
000000a0: 0803 f80b 0ffd 0612 f1fd f5f8 0af8 0ce7
000000b0: f211 1610 02f7 f8ec 0b13 f018 02f7 f0eb
000000c0: 0bfb 02f4 effd 0002 fef7 f419 0310 150c
000000d0: f203 0c0c 15f1 fffb 0b10 fdf0 eefd ec11
000000e0: 04f5 01ff 0e17 f9fb fdf8 09f2 ecfa 12f5
000000f0: 0507 ea06 1002 f300 09f7 14fb f207 ee08

model/sequential/dense/MatMul i1 [256, 6] scale=0.0036521782 zero_point=0
0.17530456 -0.1351306 0.04017396 0.0 -0.14608712 -0.17895673 -0.28121772 0.01826089
0.069391385 0.0 -0.025565248 0.29947862 0.084000096 -0.06573921 -0.14608712 0.0
-0.23008722 -0.14243495 -0.02191307 -0.19356544 0.051130496 0.0 0.19356544 0.17165238
0.25930464 -0.12782624 -0.12417406 0.0 -0.01826089 -0.266609 -0.13878277 -0.21547851
0.04747832 0.0 -0.014608713 -0.34330475 -0.41269615 0.14973931 0.09130446 0.0
0.0036521782 0.13878277 -0.04017396 -0.025565248 -0.22278287 0.0 -0.12782624 -0.2191307
-0.014608713 0.01826089 0.113217525 0.0 0.18626109 0.27391335 0.42365268 0.18260892
-0.04382614 0.0 0.15704367 0.12417406 0.06208703 0.04747832 -0.09130446 0.0
-0.04747832 -0.24469595 -0.18991327 -0.12052188 0.1168697 0.0 0.21182634 0.19721763
-0.2702612 -0.051130496 0.15339148 0.0 0.17530456 0.069391385 -0.21182634 -0.0073043564
0.08765228 0.0 0.26295683 0.07669574 0.18626109 -0.17895673 -0.069391385 0.0
-0.084000096 -0.27391335 -0.44556573 -0.069391385 -0.098608814 0.0 -0.17530456 -0.03652178
-0.24469595 -0.025565248 0.01826089 0.0 0.20817415 0.1168697 0.025565248 -0.18626109
0.2008698 0.0 0.19356544 0.054782674 0.06208703 -0.084000096 0.01826089 0.0
0.2702612 0.2520003 0.26295683 -0.12417406 -0.23008722 0.0 -0.07304356 -0.07304356
-0.098608814 0.0036521782 0.17895673 0.0 -0.0036521782 0.33965257 0.10226099 -0.05843485
0.08034792 0.0 -0.2008698 -0.14973931 -0.31408733 0.18991327 0.07669574 0.0
0.032869603 0.2702612 0.14608712 0.014608713 -0.014608713 0.0 -0.18260892 -0.30678296
-0.1351306 0.14243495 0.12782624 0.0 0.20817415 0.28852206 0.20452198 0.029217426
-0.18991327 0.0 -0.2556525 -0.16800019 -0.13878277 -0.0036521782 0.28852206 0.0
-0.069391385 0.29947862 -0.032869603 -0.17165238 0.06208703 0.0 0.1168697 0.2556525
0.20817415 -0.04017396 -0.06208703 0.0 -0.10956535 -0.19356544 0.14973931 0.24104376
0.13878277 0.0 -0.069391385 0.36887 -0.20452198 0.2337394 0.04747832 0.0
-0.010956535 0.24104376 0.1351306 -0.08765228 -0.19721763 0.0 -0.12782624 -0.2520003
-0.31043515 -0.13878277 -0.13878277 0.0 -0.12782624 -0.24834812 0.22643505 0.15339148
-0.08765228 0.0 0.23008722 0.21547851 0.098608814 -0.025565248 -0.24834812 0.0
0.0036521782 -0.2520003 0.16069584 0.25930464 -0.12782624 0.0 0.098608814 0.28121772
0.30678296 0.09495664 -0.15704367 0.0 0.23739159 -0.0036521782 -0.32139167 0.17530456
0.0 0.0 -0.2848699 -0.16434802 -0.28121772 0.0 0.2556525 0.0
0.07304356 0.2008698 -0.15339148 -0.09495664 0.18626109 0.0 0.18626109 0.10956535
0.14608712 -0.16069584 0.029217426 0.0 0.27756554 0.10956535 0.23008722 -0.025565248
0.0036521782 0.0 0.14243495 0.2520003 -0.07304356 0.1351306 -0.02191307 0.0
00000000: 30db 0b00 d8cf b305 1300 f952 17ee d800
00000010: c1d9 facb 0e00 352f 47dd de00 fbb7 dac5
00000020: 0d00 fca2 8f29 1900 0126 f5f9 c300 ddc4
00000030: fc05 1f00 334b 7432 f400 2b22 110d e700
00000040: f3bd ccdf 2000 3a36 b6f2 2a00 3013 c6fe
00000050: 1800 4815 33cf ed00 e9b5 86ed e500 d0f6
00000060: bdf9 0500 3920 07cd 3700 350f 11e9 0500
00000070: 4a45 48de c100 ecec e501 3100 ff5d 1cf0
00000080: 1600 c9d7 aa34 1500 094a 2804 fc00 ceac
00000090: db27 2300 394f 3808 cc00 bad2 daff 4f00
000000a0: ed52 f7d1 1100 2046 39f5 ef00 e2cb 2942
000000b0: 2600 ed65 c840 0d00 fd42 25e8 ca00 ddbb
000000c0: abda da00 ddbc 3e2a e800 3f3b 1bf9 bc00
000000d0: 01bb 2c47 dd00 1b4d 541a d500 41ff a830
000000e0: 0000 b2d3 b300 4600 1437 d6e6 3300 331e
000000f0: 28d4 0800 4c1e 3ff9 0100 2745 ec25 fa00
